artifcacts/guide_policy.onnx (onnx, 271351 bytes, 5 tensors)

layers.0.weight f4 [256, 5]
0	0xbcc66208	-0.024216667
1	0xbdfc9aca	-0.12334211
2	0xbf6a3770	-0.9149084
3	0x3e5e3383	0.21699338
4	0xbdc085e0	-0.09400535
5	0x3e4479a7	0.19187032
6	0x3d50cb27	0.05097499
7	0x3f2b4a4c	0.66910243
8	0x3e84491c	0.25837028
9	0x3e261fd7	0.16223083
10	0xbedea37b	-0.434841
11	0xbea5c1cc	-0.32374418
12	0x3e01a559	0.12660731
13	0x3f8082bc	1.0039897
14	0x3dc9521a	0.09830113
15	0xbd1da7e6	-0.0384902
16	0x3d51eb7e	0.051249973
17	0xbdd7d1ec	-0.10538086
18	0x3de47f1c	0.11157057
19	0x3b25a6a6	0.0025276332
20	0xbdad0b4e	-0.08449422
21	0x3f084163	0.5322477
22	0x3eb5b6eb	0.35491118
23	0xbcae9eda	-0.02131598
24	0x3df05ede	0.117368445
25	0x3f16d578	0.5891948
26	0x3f051136	0.51979387
27	0x3f12b01b	0.57299966
28	0x3ea75577	0.32682392
29	0x3d3e3e7f	0.04644632
30	0xbfaf7a8e	-1.3709276
31	0xbe7f941a	-0.2495884
32	0x3e169cd7	0.14708267
33	0xbece0b47	-0.4024298
34	0xbe50bcf4	-0.2038458
35	0xbd7e68fe	-0.062111847
36	0xbdbb01cc	-0.09131202
37	0xbeda8fdb	-0.42687878
38	0x3f1511b2	0.58230126
39	0xbdea5547	-0.114420466
40	0xbee1a504	-0.4407121
41	0xbea3594c	-0.31904066
42	0xbe87913a	-0.26477987
43	0x3f4a2f90	0.78978825
44	0xbe4805ef	-0.19533513
45	0x3fab518b	1.338426
46	0x3f0ec203	0.5576479
47	0xbec84ee5	-0.39122692
48	0xbe56c0ed	-0.20972033
49	0x3d8aaf61	0.06771732
50	0x3f7c222f	0.9848966
51	0x3f47e49e	0.7808322
52	0x3e131bd0	0.14366078
53	0xbe813a34	-0.25239718
54	0xbdeab238	-0.11459774
55	0xbec3f239	-0.3827074
56	0xbb99ef30	-0.004697703
57	0xbe9bcb40	-0.30428505
58	0xbec3a997	-0.38215324
59	0xbd5a64e8	-0.053318888
60	0x3fad4930	1.353796
61	0x3f5a36ec	0.85240054
62	0xbeb40c46	-0.35165614
63	0xbc342774	-0.0109957345
64	0x3db800ad	0.08984504
65	0xbbec5d22	-0.0072132507
66	0x3ea67c98	0.32516932
67	0x3efc59ef	0.49287364
68	0xbe02bbf8	-0.12767017
69	0x3e1bc619	0.15212287
70	0xbdd3d369	-0.10343058
71	0xbd93a11d	-0.07208464
72	0xbf209c31	-0.6273833
73	0x3ec1f60d	0.37883034
74	0xbe02bedd	-0.12768121
75	0x3e780113	0.2421916
76	0x3f2cd0fd	0.6750639
77	0xbe2fabbb	-0.17155354
78	0x3eb05640	0.34440804
79	0x3dbc6fe8	0.09201032
80	0x3fbcbce3	1.4745144
81	0x3f015441	0.50519186
82	0x3edd2463	0.43191823
83	0xbe59684d	-0.21231194
84	0xbd64d933	-0.0558712
85	0xbddd1e46	-0.1079679
86	0x3e6231ef	0.2208936
87	0x3ee95612	0.4557348
88	0xbb887a52	-0.0041649723
89	0xbd21ca1b	-0.039499383
90	0xbf829061	-1.0200311
91	0xbe8c56f9	-0.27410105
92	0xba86f137	-0.0010295276
93	0xbf8363e6	-1.0264862
94	0x3d504b2e	0.050852947
95	0xbf672062	-0.9028379
96	0xbf4bcc9e	-0.79609096
97	0xbe86c4c5	-0.26321998
98	0xbf02b532	-0.5105773
99	0x3e2772ad	0.16352339
100	0x3fa76922	1.3078959
101	0x3f1561ea	0.5835253
102	0x3e7ff414	0.24995452
103	0xbeca07c6	-0.39459056
104	0x3d51b880	0.051201344
105	0x3e3cad02	0.18425372
106	0xbd549be2	-0.051906474
107	0xbf73c289	-0.9521871
108	0x3ecbc80a	0.39801055
109	0xbe2d3cf3	-0.16917782
110	0xbe01fa3a	-0.1269311
111	0xbecd5f5e	-0.40111822
112	0x3d88ff5c	0.06689331
113	0x3f2d78b6	0.67762315
114	0xbe060da5	-0.13091142
115	0x3f595dfc	0.84909034
116	0x3ef4eaa2	0.4783526
117	0xbde659c7	-0.112475924
118	0x3f228a55	0.6349233
119	0xbe0dbb38	-0.1384095
120	0xbfc3888c	-1.5276046
121	0xbf3108a4	-0.6915381
122	0x3ec67ed7	0.38768646
123	0x3ed8977b	0.4230307
124	0x3dfbff38	0.123045385
125	0x3f8105c5	1.0079886
126	0xbf3d695f	-0.7398891
127	0x3dd942cd	0.10608444
128	0x3b16e1e5	0.0023022827
129	0xbbebbf9f	-0.007194474
130	0xbe9acf7c	-0.30236423
131	0xbec2c32d	-0.38039532
132	0xbe6580de	-0.2241244
133	0x3f751c7a	0.95746577
134	0xbe465b99	-0.19370879
135	0xbe5565d1	-0.20839621
136	0x3dcb23b2	0.09918918
137	0x3f1d1e4e	0.61374366
138	0x3f491d41	0.7856026
139	0x3e271078	0.16314876
140	0x3f8804ee	1.0626504
141	0x3f399635	0.7249482
142	0xbf84d847	-1.0378503
143	0xbe3accdb	-0.18242209
144	0xbb9752dc	-0.004618032
145	0x3f68822b	0.9082362
146	0x3efb9281	0.4913521
147	0xbedda260	-0.43287945
148	0x3f0ce5a3	0.550379
149	0xbe0901cf	-0.13379596
150	0x3eb1d63c	0.3473376
151	0xbe9236e6	-0.2855751
152	0xbf1823c3	-0.5942957
153	0xbf0597b5	-0.5218461
154	0x3de590d1	0.11209262
155	0xbee86ac4	-0.45393956
156	0xbe6f4a89	-0.23368277
157	0xbf4e5d85	-0.8061145
158	0x3cad92fd	0.021188254
159	0x3d8284f1	0.06373013
160	0xbef0a378	-0.46999717
161	0xbe6cf4ba	-0.23140231
162	0xbf7cb7e9	-0.98718125
163	0xbd9b22df	-0.075750105
164	0xbe147f67	-0.14501725
165	0xbf83585c	-1.026134
166	0xbfa7a161	-1.3096124
167	0xbe8aa3e4	-0.27078164
168	0xbc8b7ecc	-0.017028235
169	0x3d30b3f0	0.04314035
170	0x3e6751a8	0.22589743
171	0x3e095bf4	0.13413984
172	0x3f796b0e	0.9742898
173	0x3f1f114e	0.6213578
174	0x3e55aee9	0.20867504
175	0x3f803937	1.001746
176	0x3ee8e610	0.45488024
177	0xbf3b055e	-0.73055065
178	0xbed178b0	-0.4091239
179	0xbe37e22c	-0.17957371
180	0x3f360f79	0.7111736
181	0x3ec739c3	0.38911256
182	0x3ee6ec88	0.45102334
183	0x3e9860be	0.29761308
184	0x3de0542f	0.10953557
185	0x3f3710c0	0.71509933
186	0xbf81be64	-1.0136228
187	0xbdffce0a	-0.12490471
188	0x3e473fc4	0.19457918
189	0x3ce95f7b	0.028487911
190	0xbf8c241c	-1.094852
191	0xbf20a5b7	-0.6275286
192	0xbdd34e35	-0.10317651
193	0x3eb4bc29	0.35299805
194	0xbb68b440	-0.0035507828
195	0xbfa7659d	-1.3077885
196	0xbf334d5f	-0.70039934
197	0x3eb9258d	0.3616146
198	0xbf6d6c85	-0.9274371
199	0x3d64ae2d	0.05583017
200	0x3fc1ba1b	1.513492
201	0x3f8bc08b	1.0918134
202	0x3e3d8bb0	0.18510318
203	0xbed833ea	-0.42227107
204	0xbd18d3a9	-0.03731123
205	0x3e49c0fc	0.19702524
206	0x3ea75a38	0.3268602
207	0x3f34c03a	0.70605814
208	0x3d216cd8	0.039410442
209	0x3df2c40d	0.118538
210	0xbf86977f	-1.0514983
211	0x3e5e013b	0.21680157
212	0xbf3a0446	-0.7266277
213	0xbcbb2f59	-0.022849726
214	0xbce58786	-0.028018724
215	0x3e4317bb	0.19052021
216	0x3cdd7443	0.027032977
217	0x3f63d13c	0.8899114
218	0x3c266fcf	0.010158493
219	0x3e1349b1	0.1438358
220	0xbdd345cd	-0.10316048
221	0xbe015c5a	-0.12632886
222	0xbf0d9942	-0.5531198
223	0x3f05932c	0.5217769
224	0xbe11cad0	-0.14237523
225	0xbf88d917	-1.069125
226	0xbf4560b9	-0.7710071
227	0x3f586f7c	0.8454511
228	0xbe89a605	-0.26884475
229	0x3ca200d0	0.019775778
230	0x3fb5e2f7	1.4209889
231	0x3eb636ea	0.3558877
232	0x3e212e0b	0.1574022
233	0xbf22161c	-0.63314986
234	0xbde598db	-0.112107955
235	0x3eaec2cd	0.34132996
236	0xbe2a91d4	-0.16657192
237	0xbedbec45	-0.42953697
238	0x3d4aaa6a	0.049478926
239	0xbb2d898f	-0.0026479696
240	0x3ea89164	0.32923424
241	0xbf7cb118	-0.98707724
242	0x3e5e07b1	0.21682622
243	0xbeb3c95c	-0.35114563
244	0x3e115fcb	0.14196698
245	0x3e2e2f68	0.17010272
246	0xbca835c5	-0.020533452
247	0xbef8b14d	-0.4857277
248	0x3f071586	0.5276722
249	0x3dd4b025	0.103851594
250	0x3f83c5ae	1.0294702
251	0x3f833ea8	1.0253496
252	0xbef72737	-0.48272106
253	0xbe8efb6a	-0.2792619
254	0xbe4897d9	-0.19589175
255	0xbf9e6ff2	-1.2377913

layers.0.bias f4 [256]
0	0xbdd8eef1	-0.105924495
1	0xbed0a679	-0.4075201
2	0xbe340bb6	-0.17582592
3	0xbeabd945	-0.335642
4	0xbe955370	-0.2916522
5	0xbe641fc5	-0.22277744
6	0xbdc527d9	-0.09626741
7	0xbec64e93	-0.38731822
8	0xbf8a8847	-1.0822839
9	0x3b9a1cbe	0.0047031334
10	0xbe91b0e1	-0.2845526
11	0x3eb87f76	0.36034745
12	0xbe3a4898	-0.18191755
13	0xbdcf4c49	-0.10121972
14	0xbec44f63	-0.38341817
15	0xbedcd207	-0.43128988
16	0xbd923a26	-0.07139997
17	0xbd1580d1	-0.036499802
18	0x3e21831d	0.15772672
19	0xbe84e218	-0.25953746
20	0x3e8727d9	0.2639759
21	0xbeb906f5	-0.3613812
22	0xbf35dd1d	-0.7104052
23	0xbf400e62	-0.75021946
24	0xbecec81b	-0.40387043
25	0xbdb49f95	-0.088195
26	0xbf7eb22d	-0.99490625
27	0xbf16696b	-0.58754605
28	0xbe9ab2b8	-0.30214477
29	0xbf05df9d	-0.5229433
30	0xbec68206	-0.38771075
31	0x3dd48eaf	0.10378777
32	0x3d094677	0.033514466
33	0xbccdac5b	-0.0251066
34	0xbf113a16	-0.5672926
35	0xbe466878	-0.19375789
36	0xbeaf9f75	-0.34301344
37	0xbdc72cbb	-0.097253285
38	0x3d4008f7	0.04688355
39	0x3ddf2ff3	0.108978175
40	0xbea0a9ba	-0.3137949
41	0xbe710216	-0.23535952
42	0x3e1d6816	0.15371737
43	0x3d075ffa	0.033050515
44	0xbf08a0b1	-0.53370196
45	0xbe9bbb99	-0.30416563
46	0xbf05da8c	-0.522866
47	0x3cb0d8ca	0.021587748
48	0xbf2fceba	-0.68674815
49	0xbedd7626	-0.43254203
50	0xbf4f610a	-0.81007445
51	0x3deea248	0.116520464
52	0x3c2e43c0	0.01063627
53	0xbf8b9f42	-1.0907977
54	0xbf085d69	-0.5326753
55	0x3e07a0af	0.1324489
56	0xbdfda92a	-0.12385781
57	0xbf4e07a4	-0.8048041
58	0xbebf8923	-0.37409315
59	0xbede5dd1	-0.4343095
60	0xbece7e4b	-0.4033073
61	0xbe93bc79	-0.2885473
62	0x3e0faa8e	0.14029905
63	0xbe07dcbd	-0.13267799
64	0x3e0a86b5	0.13527949
65	0xbd5a9e8a	-0.05337385
66	0xbee86d3e	-0.45395845
67	0xbf140f7d	-0.57836133
68	0xbdde7fb8	-0.10864204
69	0xbeae941f	-0.34097382
70	0xbf614818	-0.8800063
71	0xbf4e837e	-0.8066939
72	0xbd8614a9	-0.06546909
73	0xbecf33d1	-0.4046922
74	0xbc43985d	-0.011938182
75	0xbcedb68d	-0.029017711
76	0xbebe9b46	-0.3722784
77	0x3d382e45	0.044966
78	0x3daf5ca8	0.08562595
79	0xbdf79c22	-0.12090327
80	0x3e7a2bc4	0.24430758
81	0xbef2132b	-0.4728025
82	0xbf09b7a3	-0.5379583
83	0x35e6ada0	1.7186867e-06
84	0x3e31fdcf	0.17381977
85	0xbf8064d6	-1.0030773
86	0xbe04890b	-0.12942903
87	0xbe6ae5eb	-0.22939269
88	0xbe9613d5	-0.29312006
89	0xbf062677	-0.5240244
90	0xbe00a4de	-0.12562892
91	0xbed1cd7b	-0.40977082
92	0xbe3c2082	-0.18371776
93	0xbe85044e	-0.25979847
94	0xbf010012	-0.5039073
95	0xbf6206e0	-0.8829174
96	0xbecff991	-0.40620092
97	0xbfa4ab88	-1.2864847
98	0x3cb8083e	0.022464868
99	0xbf0851ca	-0.532498
100	0xbf4cf7d5	-0.8006566
101	0xbee77891	-0.45209172
102	0xbe166812	-0.14688137
103	0x3e0f36fb	0.13985817
104	0xbf6292f3	-0.88505477
105	0xbf16aa10	-0.58853245
106	0xbeb45466	-0.3522064
107	0x3d4bc209	0.049745593
108	0x3dce1b2e	0.10063778
109	0xbebd68d8	-0.36994052
110	0xbe7e1709	-0.24813475
111	0xbe349152	-0.1763356
112	0xbf851343	-1.0396503
113	0xbe63067a	-0.2217044
114	0x3df271b7	0.11838096
115	0xbe6a34e5	-0.2287174
116	0xbea749af	-0.32673404
117	0xbe55bdda	-0.20873204
118	0xbf07eab2	-0.5309249
119	0xbf0f036d	-0.558646
120	0x3e6f38ef	0.23361562
121	0x3e584ae0	0.21122313
122	0xbeb4f960	-0.35346508
123	0x3e9c10e3	0.30481634
124	0x3e700bab	0.23441951
125	0xbf64b155	-0.8933309
126	0xbed590d9	-0.41712072
127	0xbe32cc0e	-0.17460653
128	0xbf2fb5be	-0.6863669
129	0xbf0cea42	-0.5504495
130	0xbdb8e245	-0.090275325
131	0xbe7348b1	-0.23758198
132	0x3dbbf4d2	0.09177555
133	0xbf1f9892	-0.6234218
134	0x3dd155d4	0.102214485
135	0x3d30aba0	0.043132424
136	0xbf418cbb	-0.7560536
137	0xbfaa1154	-1.3286538
138	0xbf22be1f	-0.6357135
139	0xbec1b88f	-0.3783612
140	0xbdd94ac7	-0.10609966
141	0xbe565647	-0.2093135
142	0xbe9bc5fc	-0.30424488
143	0xbf294f9f	-0.6613712
144	0x3e83ddc5	0.25755134
145	0x3e1a5cbe	0.15074441
146	0xbd910820	-0.07081628
147	0x3decb0d5	0.115571655
148	0x3c991f3a	0.018691648
149	0x3e530235	0.2060631
150	0x3e3f5548	0.18684876
151	0xbe377a72	-0.17917803
152	0xbd8cafc5	-0.06869463
153	0x3e914608	0.28373742
154	0xbf032455	-0.51227313
155	0xbddce0b0	-0.10785043
156	0xbe07cfa7	-0.13262807
157	0xbf09c817	-0.5382094
158	0xbe1017b6	-0.14071545
159	0x3e316a84	0.17325789
160	0xbe8e4c9b	-0.2779282
161	0xbf61d828	-0.88220453
162	0xbefee28c	-0.49782217
163	0xbed7cddb	-0.42149243
164	0x3d290d22	0.04127229
165	0xbe28ac1a	-0.16471902
166	0xbeff55a0	-0.49870014
167	0x3e140713	0.14455824
168	0xbe94c3cb	-0.29055628
169	0xbf288a54	-0.6583607
170	0xbe773328	-0.24140608
171	0xbd635cda	-0.055508472
172	0xbde51c6e	-0.11187063
173	0xbe8baa00	-0.27278137
174	0x3dc3a4cc	0.09552917
175	0xbe88be75	-0.26707807
176	0x3e3d2097	0.18469463
177	0xbc81c9f4	-0.015843369
178	0xbe19cf97	-0.15020595
179	0xbf2cb29f	-0.67460054
180	0xbe963e89	-0.29344586
181	0x3e75e314	0.24012405
182	0xbe238b79	-0.15971173
183	0xbdeda47a	-0.11603637
184	0x3e2e99b9	0.17050828
185	0xbf0e3d5d	-0.5556238
186	0xbe2fe938	-0.1717881
187	0xbf10d4e4	-0.56574845
188	0xbebc8abb	-0.36824593
189	0x3e5b13e4	0.21394306
190	0xbec55390	-0.38540316
191	0xbeb8b92f	-0.36078784
192	0xbf2c9a63	-0.67423075
193	0x3c9865b3	0.018603181
194	0xbf266000	-0.64990234
195	0xbf0bc085	-0.54590636
196	0x3c25f82e	0.010129971
197	0xbf8cc7e4	-1.0998502
198	0xbf734b27	-0.9503655
199	0xbe505ce6	-0.20347938
200	0xbf047fb9	-0.5175739
201	0xbf0acad9	-0.5421577
202	0xbf2f7bbe	-0.6854819
203	0x3d60a9ce	0.05484944
204	0xbd36891e	-0.04456436
205	0xbc95bde7	-0.018279029
206	0xbe3a03a1	-0.18165447
207	0xbec6387a	-0.38714963
208	0xbead8e34	-0.33897555
209	0x3e93866c	0.28813493
210	0x3d47d006	0.04878237
211	0xbea80952	-0.3281961
212	0x3dded8d2	0.10881199
213	0xbf3a9ae6	-0.72892606
214	0x3de7a86c	0.11311421
215	0xbf6509da	-0.8946816
216	0xbe27b37a	-0.16377059
217	0xbd673416	-0.056446157
218	0x3e06e705	0.13174064
219	0xbd0a2344	-0.03372504
220	0xbe0d25fc	-0.13784021
221	0xbf54b93c	-0.83095145
222	0xbe77dc8d	-0.24205227
223	0xbe35298e	-0.17691633
224	0xbe97e40c	-0.29666173
225	0xbec4a8b1	-0.3840995
226	0xbeb5a224	-0.35475266
227	0xbe8dc4fe	-0.27689356
228	0xbd0012be	-0.031267874
229	0xbe6212b4	-0.22077447
230	0xbe4e2378	-0.20130718
231	0xbddc814c	-0.10766849
232	0x3e85119b	0.25989994
233	0xbddf881e	-0.10914634
234	0xbf064592	-0.52449906
235	0x3dc4cf13	0.09609809
236	0xbd258027	-0.04040542
237	0xbe86d4bf	-0.26334187
238	0xbf10f2cf	-0.56620497
239	0xbe305082	-0.17218211
240	0xbd8717bb	-0.06596323
241	0xbdec2de1	-0.11532188
242	0x3e6bbcb3	0.23021202
243	0xbe4e36ce	-0.20138094
244	0x3e80310f	0.2503743
245	0xbe911df3	-0.28343162
246	0x3daeac54	0.08528963
247	0xbda665ed	-0.081249095
248	0xbd0f34be	-0.03496241
249	0x3ed348ad	0.41266385
250	0xbf29fdde	-0.66402996
251	0xbe13b728	-0.14425337
252	0xbe116073	-0.14196949
253	0xbf297230	-0.6618986
254	0xbf04e599	-0.5191284
255	0x3cf4c303	0.029878145

layers.2.weight f4 [256, 256]
0	0x3b306063	0.002691292
1	0x3cbbd87a	0.022930373
2	0x3c985b54	0.018598236
3	0x3c403fd8	0.011733972
4	0x3c7af615	0.01531746
5	0xbd0e7bdf	-0.0347861
6	0xbd11ba06	-0.035577796
7	0x3d2ae2c1	0.041720156
8	0x3b889212	0.0041678036
9	0xbb8087cd	-0.0039224387
10	0x3d048dd7	0.03236183
11	0xbca3ddf1	-0.02000329
12	0xbbaef925	-0.005339759
13	0xbbb674bd	-0.0055681155
14	0xbd8cd6fc	-0.068769425
15	0x3ca2beb6	0.019866329
16	0x3d601a51	0.054712597
17	0xbc35d120	-0.011097223
18	0xbd7a8c21	-0.061168794
19	0x3cf2813f	0.029602645
20	0xbcda7d00	-0.026670933
21	0xbd110188	-0.03540185
22	0xbd896e1e	-0.06710456
23	0xbceb50a9	-0.028724985
24	0xbd0443e4	-0.032291308
25	0x3cd1f86a	0.025631148
26	0xbd939bcf	-0.072074525
27	0x3b841830	0.0040312037
28	0xbd81b98d	-0.06334219
29	0x3cc31afb	0.023816576
30	0xbd097707	-0.03356078
31	0x3cfbfe02	0.030760769
32	0xbd9cfd98	-0.07665557
33	0x3d3b6d99	0.045758817
34	0xbb969a48	-0.0045960285
35	0xbd6d1036	-0.057876788
36	0x3c2a478b	0.010393034
37	0xbd7bc6ae	-0.061468773
38	0x39661a0a	0.0002194421
39	0x3d298c21	0.041393403
40	0xbd2e90d5	-0.04261859
41	0xbd6f7bd7	-0.058467712
42	0x3c07e900	0.008295298
43	0x3c99f378	0.018792853
44	0xbb9e3c32	-0.004828953
45	0xbd63ea34	-0.055643275
46	0xba6821af	-0.0008855117
47	0xbd17b0c4	-0.03703381
48	0xbc87cb24	-0.016576357
49	0xbc8a6f20	-0.016898692
50	0xbd26f98c	-0.04076533
51	0xbbb5b752	-0.005545535
52	0x3c115059	0.008869254
53	0x3d01f892	0.031731196
54	0xbd80c5cf	-0.06287729
55	0x3d1287c0	0.035773993
56	0x3c3123c8	0.010811754
57	0xbd579e75	-0.05264135
58	0xbc57dd75	-0.013175358
59	0xbd6f5a88	-0.058435947
60	0x3d2bb48b	0.041920226
61	0xbcc35640	-0.023844838
62	0x3d384813	0.04499061
63	0x3c9dbc20	0.019254744
64	0x3cceb58e	0.025233056
65	0x3d1bfa88	0.038080722
66	0xbca8d2b6	-0.020608287
67	0x3c89fa6b	0.016843041
68	0xbd94d735	-0.0726761
69	0xbd9f98f9	-0.07792849
70	0xba909a04	-0.0011032228
71	0xbd794021	-0.060852174
72	0x3c953b0e	0.018216636
73	0x3cf7977d	0.030223602
74	0x3d2c078c	0.041999385
75	0xbd1bfb2c	-0.038081333
76	0x3cc9143f	0.024545787
77	0x3c95ce0e	0.018286731
78	0xbd3ff714	-0.04686649
79	0x3bac190f	0.0052520107
80	0x3b5b31a9	0.0033446348
81	0x3c889e29	0.01667698
82	0xbd5ef1eb	-0.05442993
83	0x3d147827	0.0362474
84	0x3d539c90	0.05166298
85	0x3d1c8aa6	0.038218163
86	0xbd2130b4	-0.039353088
87	0xbcd16986	-0.025563013
88	0xbd0b844a	-0.034061708
89	0x3d2926b1	0.041296665
90	0xbd159116	-0.036515318
91	0xbd920273	-0.071293734
92	0x3c48eef1	0.012263999
93	0xbb5b14d8	-0.0033429172
94	0xbd2eaaa6	-0.04264321
95	0x3d074ea7	0.033033993
96	0x3c8369b2	0.01604161
97	0xbc527e9b	-0.012847568
98	0x3bb607dc	0.005555136
99	0xbc231295	-0.009953161
100	0xbd7611ea	-0.060075678
101	0xbc24890c	-0.01004244
102	0x3d038ae8	0.032114893
103	0x3b33679b	0.0027374986
104	0xbcbfbc7c	-0.023405306
105	0x3d1d25d0	0.03836614
106	0x3c5d9141	0.013523401
107	0xbcc61649	-0.024180548
108	0xbd4c91db	-0.049943786
109	0xbc5ef9ae	-0.013609333
110	0xbd8239c1	-0.06358672
111	0x3d19937e	0.037494175
112	0xbb18f4db	-0.0023339305
113	0x3c949d73	0.018141484
114	0xbd5ca93e	-0.05387234
115	0x3d3144d9	0.04327855
116	0x3ce0b2ad	0.02742895
117	0x3c06b9f3	0.008223045
118	0xbb06d546	-0.0020573898
119	0xbccea1c0	-0.025223613
120	0xbd5257cc	-0.05135326
121	0x3d5d5ce3	0.05404366
122	0x3b27c544	0.0025599757
123	0xbc8a5e48	-0.01689066
124	0xbda03fda	-0.07824679
125	0x3ce38cdf	0.027777134
126	0xbd525930	-0.051354587
127	0x3c86139a	0.016366769
128	0x3cfa7b3f	0.030576346
129	0xbd0a47df	-0.033759948
130	0xbcf726cc	-0.030169867
131	0xbc2bce2b	-0.010486166
132	0x3ce004d8	0.02734606
133	0x3d3b2ea0	0.045698762
134	0xbbcd5626	-0.006266373
135	0xbd642d87	-0.05570748
136	0x3ccf3b1d	0.025296742
137	0x3cb2609f	0.021774588
138	0xbd8bd6c1	-0.068280704
139	0xbd90d66b	-0.07072147
140	0x3c38531c	0.011250284
141	0x3d2113eb	0.039325636
142	0x3bd24f56	0.006418149
143	0x3cd410ca	0.025886912
144	0xbc750155	-0.014953931
145	0x3a93d1cf	0.0011277738
146	0x3c2b1743	0.010442558
147	0x3cbbe4e3	0.02293629
148	0xbd263162	-0.04057444
149	0xbca5f21c	-0.020257048
150	0xbd4c7fe8	-0.04992667
151	0xbc74e271	-0.014946566
152	0x3cebf210	0.028801948
153	0xbd45841e	-0.0482217
154	0xbd927613	-0.07151427
155	0x3ce05687	0.02738501
156	0x3c20b0fb	0.00980782
157	0x3ae7692b	0.0017655244
158	0xbd8ae7b9	-0.06782479
159	0xbd30d8af	-0.043175396
160	0x3b028390	0.0019914843
161	0xbcf0c3ff	-0.029390333
162	0xbc23812f	-0.00997953
163	0xbd72d20d	-0.05928235
164	0xbd18e38b	-0.037326377
165	0xbc96b66a	-0.018397529
166	0x3cd6ff0a	0.026244659
167	0x3d101679	0.03517768
168	0xbd3477c9	-0.04405955
169	0xbcf3cc37	-0.029760463
170	0xbd7cf08d	-0.061752845
171	0xbc8888cf	-0.016666798
172	0xbd0f585c	-0.034996375
173	0xbd98f66a	-0.07468875
174	0x3d0f56d0	0.0349949
175	0xbce7498f	-0.028233318
176	0xbc8a77a3	-0.01690275
177	0x3c5d1c68	0.013495542
178	0xbd5d7946	-0.054070733
179	0xbd8e5827	-0.069504075
180	0xbce736a9	-0.028224306
181	0xbd1c2084	-0.038116947
182	0xbc260af2	-0.0101344455
183	0xbd70613e	-0.058686487
184	0x3cc993e5	0.024606654
185	0x3bef7560	0.0073076934
186	0xbcdd0ab8	-0.02698265
187	0xbdb12c3e	-0.08651017
188	0x3bec494c	0.007210886
189	0xbcdfe532	-0.027330969
190	0xbcbf0186	-0.023316156
191	0xbcc47ac5	-0.023984322
192	0xbc9759f2	-0.018475506
193	0x3c9ddd3b	0.01927053
194	0xbd8e9d3f	-0.06963586
195	0x3cd36500	0.025804996
196	0xbd325d5e	-0.043546073
197	0x3bbfbff6	0.005851741
198	0xbd844c74	-0.06459895
199	0xbd79732d	-0.060900856
200	0xbd6467b8	-0.055762976
201	0x3c2e62ce	0.010643674
202	0x3c595352	0.013264494
203	0x3b893889	0.0041876477
204	0xbd54057b	-0.05176304
205	0xbd19f503	-0.037587177
206	0xbd9b2eb8	-0.0757727
207	0xbd76da07	-0.06026652
208	0xba69754c	-0.0008905723
209	0xbd180b11	-0.03711993
210	0xbd8360ba	-0.064149335
211	0xbd56d702	-0.05245114
212	0xbc20da66	-0.009817695
213	0xbd8a44ea	-0.067514256
214	0xbd22436e	-0.039615087
215	0x3d1cebfd	0.038310993
216	0xbcbbe54b	-0.022936484
217	0xbcce98ca	-0.02521934
218	0x3d6e4cf5	0.05817886
219	0xbd80a0ed	-0.06280694
220	0x3d1ee34d	0.03879099
221	0xbd9d7298	-0.07687873
222	0xbd514f7c	-0.051101193
223	0x3d2e8df1	0.042615835
224	0x3d15e198	0.036592096
225	0x3ccf0679	0.025271641
226	0xbc967e14	-0.018370666
227	0xbd8028f0	-0.06257808
228	0x3caa1a66	0.02076454
229	0xbcbc6680	-0.022998095
230	0xbd8ba505	-0.06818584
231	0x3d2572f4	0.04039283
232	0x3d545f05	0.05184843
233	0xbd6749ac	-0.056466743
234	0xbbb6bcca	-0.0055767046
235	0xbd38882a	-0.04505173
236	0xbd8d2ac6	-0.06892924
237	0xbd238480	-0.039921284
238	0xbc3efb91	-0.011656658
239	0xba1ae679	-0.0005908977
240	0x3cd33160	0.02578038
241	0xbc9d825d	-0.019227201
242	0xbcd40833	-0.025882816
243	0xbc475340	-0.012165844
244	0xbca20bc1	-0.019780995
245	0xbdb28a24	-0.087177545
246	0x3c64416b	0.0139316125
247	0x3c903894	0.017605104
248	0xbd55ea5f	-0.052225467
249	0x3c658e67	0.014011002
250	0xbd38e255	-0.045137722
251	0x3ab00949	0.0013430502
252	0x3c1081ee	0.00882004
253	0xbd599ff0	-0.053131044
254	0xbc2a60f4	-0.010399092
255	0x3ceb6986	0.028736841

layers.2.bias f4 [256]
0	0xbcecfdac	-0.028929554
1	0xbbac25a2	-0.0052535096
2	0xbc160ad9	-0.00915786
3	0x3b8e7f8f	0.0043487023
4	0x3d4cf3ee	0.050037317
5	0xbc3c8f9f	-0.011508851
6	0xbce94360	-0.02847451
7	0x3d9f9c89	0.077935286
8	0x3db98a27	0.090595536
9	0xbe8c6440	-0.27420235
10	0x3cdf8552	0.027285252
11	0x3d1e22ea	0.038607515
12	0x3b395dd7	0.0028284693
13	0x3da790f8	0.081819475
14	0x3ddf811e	0.10913299
15	0x3b5056fb	0.0031790126
16	0x3daaf8b9	0.08348221
17	0x3cf7c78f	0.030246524
18	0xbd4174cc	-0.047230527
19	0x3e1180c2	0.14209273
20	0x3cf078a3	0.0293544
21	0xbc8d4658	-0.017245457
22	0xbda5795c	-0.08079788
23	0xbcca7507	-0.024714006
24	0x3cc6b59d	0.024256522
25	0xbe07b4c6	-0.13252553
26	0x3dc83a8b	0.09776791
27	0xbd72f3ae	-0.059314422
28	0x3b8d8031	0.00431826
29	0xbdcea231	-0.10089529
30	0xbd7da37c	-0.06192349
31	0xbdbf133c	-0.093298405
32	0xbd8e3878	-0.06944364
33	0xbca335bb	-0.019923082
34	0xbcda9462	-0.026682083
35	0x3df10f83	0.11770537
36	0xbd9e55eb	-0.07731231
37	0x3d190263	0.03735579
38	0x3c33a09c	0.010963585
39	0x3e23e674	0.1600588
40	0xbd08bd2e	-0.03338354
41	0x3d4044d5	0.046940643
42	0xbd6bcfe6	-0.057571314
43	0x3dcfb31b	0.101415835
44	0x3ba3969e	0.00499232
45	0xbe59a666	-0.21254882
46	0x3bbd5675	0.0057781287
47	0xbc9e3c64	-0.019315906
48	0xbd854ef2	-0.06509198
49	0xbd9b8710	-0.075941205
50	0x3c9d5fc5	0.019210706
51	0x3d40aa53	0.047037434
52	0xbe134bfe	-0.14384457
53	0x3dde7e89	0.108639784
54	0xbce4c3df	-0.02792543
55	0x3d187029	0.03721634
56	0x3bc385b8	0.0059668683
57	0xbcfc7a38	-0.030819997
58	0x3dec34f2	0.11533536
59	0x3b2376e9	0.0024942702
60	0xbe280f43	-0.16412072
61	0x3deb74d4	0.114968926
62	0xbd832675	-0.064038195
63	0xbd783674	-0.060598806
64	0xba80fc55	-0.0009840826
65	0xbd73709d	-0.05943357
66	0xbd721f6a	-0.05911199
67	0x3dd1b572	0.10239686
68	0xbdcec565	-0.10096244
69	0xbc917a1c	-0.017758422
70	0x3bf732b3	0.0075438856
71	0xbd7ab024	-0.061203137
72	0xbd1dec81	-0.038555626
73	0x3dddb718	0.10825938
74	0x3c9877b7	0.018611772
75	0x3c8b03f9	0.016969668
76	0xbc67a3cd	-0.014138174
77	0xbc6f653a	-0.014611537
78	0x3d0fcd56	0.035107933
79	0x3cddbb0f	0.027066736
80	0xbd836f0a	-0.064176634
81	0x3c6ac4e1	0.014329166
82	0xbcd223ab	-0.025651773
83	0xbda5fea0	-0.081052065
84	0xbdb2ec6a	-0.08736499
85	0xbd21eae3	-0.039530646
86	0x3dac0fef	0.084014766
87	0x3cd61995	0.026135245
88	0x3be13fff	0.006874084
89	0xbd5f2d2a	-0.05448643
90	0x3d33f03e	0.043930285
91	0xbda136ad	-0.07871757
92	0xbd670901	-0.05640507
93	0x3d992c60	0.07479167
94	0x3c7c5995	0.015402217
95	0x3d13df0e	0.036101393
96	0xbcfa1183	-0.030525928
97	0xbd6453ec	-0.055744097
98	0xbdcbc99d	-0.09950564
99	0x3c70d95c	0.01470026
100	0xbd2d9d8d	-0.04238658
101	0xbd73c674	-0.05951543
102	0xbcaacbe6	-0.02084918
103	0x3c3d68ea	0.011560658
104	0x3cb1911e	0.021675643
105	0x3b59e4ea	0.0033248016
106	0x3cd37c9d	0.025816256
107	0x3dab1e55	0.08355395
108	0x3cc5e1ed	0.024155581
109	0x3ce166a3	0.027514761
110	0xbc407e87	-0.0117489165
111	0xbc9e4a4c	-0.019322537
112	0x3e00fb28	0.12595809
113	0xbac59126	-0.0015073165
114	0xbd7f4625	-0.062322754
115	0x3d762c6e	0.060100965
116	0xbd8be48e	-0.06830703
117	0xbd1399b8	-0.03603527
118	0x3ba3d990	0.0050003007
119	0x3c95d458	0.01828973
120	0xbd126835	-0.03574391
121	0xbcd9a1a4	-0.026566334
122	0x3cfff2ec	0.031243764
123	0xbe5654ba	-0.20930758
124	0xbd7795e2	-0.060445674
125	0xbe5a5b48	-0.21323884
126	0x3d15ad78	0.036542386
127	0x3e3cb3b0	0.1842792
128	0xbcfe6a50	-0.031056553
129	0x3d85aec8	0.065274775
130	0xbd5635c3	-0.052297365
131	0xbe6fe3f0	-0.23426795
132	0x3d1ad8d2	0.037804432
133	0xbd349c97	-0.04409465
134	0xbc70ebf3	-0.014704692
135	0xba559f91	-0.00081490824
136	0x3e0376c3	0.12838273
137	0xbe7d0bd1	-0.24711539
138	0x3d5a45a2	0.053289063
139	0x3db5b167	0.088717274
140	0x3dfa867f	0.12232684
141	0xbc844da6	-0.016150307
142	0xbd819252	-0.063267365
143	0x3d8ead12	0.06966604
144	0x3d24f8eb	0.04027645
145	0x3c978e8e	0.018500593
146	0xbcc46b1e	-0.023976859
147	0x3c79d956	0.015249571
148	0x3d9a9127	0.07547217
149	0xbdf27e36	-0.11840479
150	0x3d333013	0.04374702
151	0x3c01136b	0.007878165
152	0x3cc06193	0.023484027
153	0x3d67ee30	0.056623638
154	0xbccf213d	-0.025284404
155	0xbd0c6049	-0.034271512
156	0x3d3b971c	0.045798406
157	0xbc285e79	-0.01027643
158	0xbd82d1da	-0.06387682
159	0x3d540672	0.05176396
160	0x3d18ba0a	0.037286796
161	0x3de7fb90	0.113272786
162	0x3dcf201a	0.10113545
163	0xbd1839db	-0.03716455
164	0x3e31c71c	0.1736111
165	0x3e0da37c	0.13831896
166	0xbe1dd5ef	-0.1541364
167	0xbd4be223	-0.049776208
168	0xbdbb2ab0	-0.09139001
169	0xbd474a2c	-0.04865472
170	0xbd7cd469	-0.061726008
171	0x3d1b3bf5	0.037898976
172	0xbdd19728	-0.10233909
173	0x3cd576e7	0.026057674
174	0x3e240f6e	0.16021511
175	0x3ce9a7d0	0.028522402
176	0xbd12e4c7	-0.03586271
177	0xbd6be26d	-0.057588983
178	0xbdd107fa	-0.102065995
179	0xbd64cb59	-0.05585799
180	0x3c24ea80	0.010065675
181	0x3d7233e3	0.059131514
182	0x3cee395c	0.029080085
183	0x3ca7256a	0.020403583
184	0xbd31090f	-0.04322153
185	0xbe291ce9	-0.16514935
186	0xbcb78854	-0.022403874
187	0x3d679699	0.056540105
188	0x3bbadbe7	0.005702484
189	0x3d88ec62	0.066857114
190	0x3de0398f	0.109484784
191	0x3d72df9a	0.059295274
192	0xbb879a77	-0.0041382867
193	0x3cec9eae	0.028884258
194	0x3d5a6ce9	0.05332652
195	0x3cb370a4	0.021904297
196	0x3d0c7db7	0.03429958
197	0x3d51e448	0.051243097
198	0x3e0056d7	0.12533127
199	0x3d5c84a3	0.05383743
200	0x3cf80e20	0.030280173
201	0xbd17175e	-0.03688752
202	0x3d1832a9	0.03715769
203	0x3ce915ce	0.02845278
204	0xbc92e340	-0.017930627
205	0xbd88c270	-0.06677711
206	0xbc82028e	-0.015870359
207	0x3d38aa76	0.04508444
208	0xbc304a3b	-0.010759885
209	0xbcb27528	-0.02178438
210	0x3dbf15ac	0.093303055
211	0xbb4d7ed4	-0.0031356113
212	0x3d871802	0.06596376
213	0x3dc4bd10	0.09606373
214	0xbc933034	-0.017967321
215	0xbd8903cd	-0.06690178
216	0x3db6150b	0.088907324
217	0xbd72b6e2	-0.059256442
218	0x3dd77ad3	0.10521474
219	0x3e0917bf	0.13387965
220	0xbd9551d5	-0.07290999
221	0xbd11900c	-0.035537764
222	0xbd95526e	-0.07291113
223	0x3d68452f	0.056706604
224	0x3e1d5d59	0.1536764
225	0xbd66bdfb	-0.056333523
226	0x3cd1a139	0.025589572
227	0xbd7c58dd	-0.061608184
228	0x3d7030ca	0.05864028
229	0x3d94b2e7	0.072606854
230	0xbcf7f2b6	-0.0302671
231	0xbc09631d	-0.008385447
232	0xbce7be4a	-0.02828898
233	0xbd955430	-0.07291448
234	0xbd630e00	-0.055433273
235	0x3dcaec70	0.09908378
236	0x3d951135	0.072786726
237	0xbde67093	-0.112519406
238	0x3dc6f07f	0.0971384
239	0xbd351c4a	-0.04421643
240	0xbd5a6b28	-0.05332485
241	0xbdb40675	-0.08790294
242	0xbd640af9	-0.055674527
243	0x3da8fef0	0.082517505
244	0xbd5ced58	-0.053937286
245	0xbd853ca3	-0.06505706
246	0xbd3f3ca0	-0.046688676
247	0x3dab3c8e	0.08361159
248	0xbd89c9cc	-0.06727943
249	0x3ce286e9	0.02765222
250	0x3c21826e	0.009857757
251	0xbd9e9cfe	-0.07744788
252	0x3cc8db6b	0.02451869
253	0x3d56a135	0.052399833
254	0xbc9011da	-0.017586637
255	0xbd9c9ac8	-0.0764671

action_head.weight f4 [1, 256]
0	0x3ceae1eb	0.02867218
1	0x3c99ad8a	0.018759508
2	0xbedcd828	-0.43133664
3	0x3b9236d0	0.0044621006
4	0xbf0148d8	-0.50501776
5	0x3dea8fab	0.11453184
6	0xbe5c1645	-0.2149287
7	0x3ec9a202	0.39381415
8	0x3f072be9	0.52801377
9	0xbf824c60	-1.0179558
10	0x3d087ebc	0.03332399
11	0x3dc106c4	0.094251186
12	0x3a555230	0.0008137552
13	0xbebb8576	-0.3662526
14	0xbf023267	-0.5085816
15	0xbd22299f	-0.039590474
16	0xbe7c9fb7	-0.24670301
17	0xbd42284f	-0.047401723
18	0x3d384c7e	0.044994824
19	0xbe837a15	-0.2567908
20	0x3eba471d	0.3638238
21	0xbe87c835	-0.26519933
22	0xbced2307	-0.028947366
23	0x3f0d55da	0.55209124
24	0x3f2bafc1	0.67065054
25	0x3e5c0640	0.21486759
26	0xbebc746a	-0.36807567
27	0xbcf3a61d	-0.029742295
28	0xbd22abe5	-0.039714713
29	0x3e927f81	0.28612903
30	0xbd0bb572	-0.034108587
31	0xbe307c47	-0.17234908
32	0x39011979	0.00012311888
33	0xbd1ed5dc	-0.03877817
34	0xbe34f88b	-0.17672937
35	0x3e22578a	0.15853706
36	0xbf2f3de6	-0.68453825
37	0xbb3a000f	-0.0028381383
38	0xbc3ccc63	-0.011523339
39	0xbe755207	-0.23957072
40	0xbb638939	-0.0034719242
41	0x3eca4c5c	0.39511383
42	0x3c9fab95	0.019490996
43	0xbeb58ebb	-0.35460457
44	0x3f6ac280	0.91703033
45	0xbe9428fe	-0.28937525
46	0x3ce6eaac	0.028188072
47	0xbd61f41c	-0.05516444
48	0x3f6b4bf4	0.9191277
49	0x3bf5b3ce	0.007498241
50	0x3cee2dcd	0.029074574
51	0x3f237dd7	0.6386389
52	0x3e6412a2	0.22272733
53	0xbf855748	-1.0417261
54	0xbe925478	-0.2858007
55	0xbc2f70af	-0.010708018
56	0x3e813d5d	0.2524213
57	0xbe76eb8c	-0.24113292
58	0x3e8dd1ce	0.2769913
59	0xbaa35915	-0.0012462462
60	0x3ec847cb	0.39117274
61	0xbe7aa595	-0.24477227
62	0x3d35a6e7	0.044348624
63	0x3bc4761a	0.005995524
64	0xbf2cd686	-0.67514837
65	0xbd13419a	-0.035951234
66	0xbf142a7c	-0.57877326
67	0xbe259625	-0.16170557
68	0xbf444ea6	-0.7668251
69	0xbd707c98	-0.05871257
70	0xbdfbe4cd	-0.122995
71	0xbe2581b9	-0.16162767
72	0xbb6b9669	-0.0035947806
73	0x3ed13241	0.40858653
74	0xbd255935	-0.040368278
75	0x3e69b705	0.22823723
76	0x3d138315	0.03601368
77	0x3ebf8649	0.3740714
78	0xbc8ee445	-0.017442832
79	0xbed643b0	-0.41848516
80	0xbc01206a	-0.007881263
81	0xbf9a8241	-1.2071
82	0xbf1942ac	-0.5986736
83	0x3a44b12e	0.00075032085
84	0xbeaa4bf0	-0.3326106
85	0x3ebff14c	0.37488782
86	0x3eb2c11a	0.3491295
87	0x3d16779c	0.036735162
88	0xbc378067	-0.011200047
89	0x3e94a3ea	0.29031307
90	0xba2fd341	-0.00067071995
91	0xbbf42756	-0.0074509783
92	0x3cbed0f4	0.023292996
93	0xbf0237ac	-0.508662
94	0x3d6cb26b	0.05778734
95	0xbe9d3eaf	-0.30711886
96	0xbcff9137	-0.031197174
97	0x3eb88579	0.36039332
98	0xbf236cc9	-0.6383787
99	0xbe475505	-0.19466026
100	0x3ec4172b	0.38298926
101	0x3c943b64	0.018094726
102	0xbdbb46d1	-0.091443665
103	0xbb80a2d8	-0.0039256625
104	0x3a93e045	0.0011282047
105	0xbed6adbe	-0.4192943
106	0xbc8189d8	-0.0158128
107	0x3dd59922	0.104295984
108	0x3f3d2c98	0.7389617
109	0x3f091e3b	0.53561753
110	0xbe41afe3	-0.18914752
111	0xbd8c1c81	-0.06841374
112	0x3d102591	0.035192076
113	0x3ec07664	0.37590325
114	0x3edc2037	0.42993328
115	0xbf20eb75	-0.6285928
116	0xbc1bd7d5	-0.009511908
117	0x3d7134f5	0.058888394
118	0xbd037069	-0.032089625
119	0x3cf100c3	0.029419309
120	0x3c633252	0.013866978
121	0xbce9138f	-0.02845171
122	0x3f231c9e	0.6371554
123	0xbf14c20e	-0.58108604
124	0x3d1eb26d	0.03874438
125	0x3eef0980	0.46686935
126	0xbcaac322	-0.020845
127	0x3d24251b	0.04007445
128	0x3f566bac	0.83758044
129	0xbe67e2a6	-0.22645053
130	0x3d15bec3	0.036558878
131	0xbfb57394	-1.4175897
132	0xbba9c753	-0.005181232
133	0x3f674fd2	0.9035617
134	0xbc30ae60	-0.010783762
135	0x3e8addde	0.27122396
136	0x3e26c7f6	0.16287217
137	0xbee1e616	-0.44120854
138	0xbe942e40	-0.28941536
139	0xbe71af49	-0.23602022
140	0xbc612325	-0.013741289
141	0xbe8d17ec	-0.27557313
142	0xbb301d06	-0.0026872768
143	0xbe2dfab0	-0.16990161
144	0x3f8a358e	1.0797594
145	0x3eba1d8e	0.36350673
146	0x3c20f3eb	0.00982378
147	0x3e695d6f	0.22789548
148	0x3f5426a1	0.82871443
149	0x3f8058b0	1.0027065
150	0x3d65e06a	0.05612222
151	0xbd26b46f	-0.04069942
152	0xbdcc641a	-0.0998003
153	0x3f018e06	0.50607336
154	0xbc2cfd61	-0.010558457
155	0xbb406288	-0.0029355604
156	0xbf1a88ae	-0.60364807
157	0x3d79c1cd	0.06097584
158	0x3cd3f6d8	0.02587454
159	0xbf674d40	-0.9035225
160	0x3d236984	0.03989555
161	0x3f2e7133	0.6814148
162	0x3ef7630d	0.48317757
163	0x3c9ed005	0.0193863
164	0xbe9ee919	-0.31037214
165	0x3f5fd757	0.8743796
166	0xbfb6e2d3	-1.4287971
167	0x3f62757b	0.8846051
168	0xbdeb4a15	-0.114887394
169	0x3eadd691	0.33952764
170	0xbac9b505	-0.0015389031
171	0x3ef49cad	0.47775784
172	0x3e0d6817	0.13809238
173	0x3c27280e	0.010202421
174	0xbd28ff7e	-0.04125928
175	0xbe8473e7	-0.25869676
176	0x3e621c70	0.2208116
177	0xbe8c1407	-0.2735903
178	0xbe65847e	-0.22413823
179	0x3d103649	0.03520802
180	0x3ce41c3d	0.027845496
181	0x3f2ae838	0.6676059
182	0x3f7cd9b0	0.98769665
183	0xbeac235b	-0.33620724
184	0x3fb6b73b	1.4274668
185	0x3f0c4f1d	0.5480822
186	0x3d203160	0.039109588
187	0x3d2406f6	0.0400457
188	0x3e039de0	0.12853193
189	0x3d31173c	0.04323505
190	0x3efaab86	0.48958987
191	0x3e3bc855	0.1833814
192	0x3e8c60d6	0.2741763
193	0x3de88caa	0.113549545
194	0x3e90ab7d	0.28255835
195	0x3abcf341	0.0014415757
196	0x3f21d09b	0.6320893
197	0xbe3c6e6f	-0.18401502
198	0x3f139571	0.57649904
199	0x3b8a79a3	0.004225926
200	0x3d159e3c	0.036527857
201	0xbbe79118	-0.007066857
202	0xbe5fa9ce	-0.21842119
203	0x3ce2f69e	0.027705487
204	0x3c0f4658	0.008744799
205	0xbcf335bd	-0.02968871
206	0x3e2be09b	0.16784899
207	0xbec979b3	-0.39350662
208	0x3ce014b5	0.027353624
209	0x3d0a03f4	0.033695176
210	0xbeb7e947	-0.35920164
211	0x3d6e709a	0.058212854
212	0xbe91bbaa	-0.2846349
213	0xbe6dde1a	-0.23229256
214	0xbc28f568	-0.010312416
215	0xbf83792c	-1.0271354
216	0x3ed9cc8b	0.42538866
217	0xbe6a81b6	-0.22901043
218	0x3ecd7ed5	0.40135828
219	0x3e1fc4e1	0.15602447
220	0xbbd73be7	-0.00656842
221	0x3f516106	0.8178867
222	0xbd0e63d7	-0.034763183
223	0x3fe66a8f	1.8001269
224	0x3e1e9696	0.15487131
225	0x3c5b2701	0.0133759985
226	0x3ebfb4e9	0.3744271
227	0x3a6a4f78	0.00089382334
228	0xbf16432b	-0.5869624
229	0x3f78f2bf	0.972454
230	0x3e5e9ba7	0.21739064
231	0xbc3bd00d	-0.011463177
232	0x3e7af4c3	0.24507432
233	0x3b7808f7	0.003784714
234	0xbcec82b6	-0.028870922
235	0xbdea5515	-0.11442009
236	0xbeccabcd	-0.39974824
237	0xbed0563d	-0.40690795
238	0x3f386bde	0.7203959
239	0x3cf62e4a	0.03005137
240	0xbebc799e	-0.36811537
241	0xbe371309	-0.17878355
242	0x3cd8ce87	0.026465667
243	0x3f3e3aa9	0.7430826
244	0x3c776a4c	0.015101027
245	0x3f1b702a	0.60718024
246	0x3ba759ed	0.0051071555
247	0xbebdc3fd	-0.3706359
248	0x3e829843	0.2550679
249	0xbccc779b	-0.024959376
250	0xbea7f31a	-0.3280266
251	0x3c7c1351	0.015385465
252	0x3e839c51	0.25705197
253	0x3e5c3146	0.21503171
254	0xbc0707e0	-0.008241624
255	0xbcd7ce22	-0.026343409
